…
          "2": "High density Residential"
        },
        {
          "3": "Cropland"
        },
        {
          "4": "Mixed Forest Land"
        },
        {
          "5": "Lake"
        }
      ]
    },
    "dlm:architecture": {
      "total_nb_parameters": 42813873,
      "estimated_total_size_mb": 183.72,
      "type": "unet-resnet-18-scse",
      "summary": "----------------------------------------------------------------\n        Layer (type)               Output Shape         Param\n================================================================\n            Conv2d-1           [-1, 64, 32, 32]           9,408\n      BatchNorm2d-2           [-1, 64, 32, 32]             128\n              ReLU-3           [-1, 64, 32, 32]               0\n        MaxPool2d-4           [-1, 64, 16, 16]               0\n            Conv2d-5           [-1, 64, 16, 16]          36,864\n      BatchNorm2d-6           [-1, 64, 16, 16]             128\n              ReLU-7           [-1, 64, 16, 16]               0\n            Conv2d-8           [-1, 64, 16, 16]          36,864\n      BatchNorm2d-9           [-1, 64, 16, 16]             128\n            ReLU-10           [-1, 64, 16, 16]               0\n      BasicBlock-11           [-1, 64, 16, 16]               0\n          Conv2d-12           [-1, 64, 16, 16]          36,864\n      BatchNorm2d-13           [-1, 64, 16, 16]             128\n            ReLU-14           [-1, 64, 16, 16]               0\n          Conv2d-15           [-1, 64, 16, 16]          36,864\n      BatchNorm2d-16           [-1, 64, 16, 16]             128\n            ReLU-17           [-1, 64, 16, 16]               0\n      BasicBlock-18           [-1, 64, 16, 16]               0\n          Conv2d-19            [-1, 128, 8, 8]          73,728\n      BatchNorm2d-20            [-1, 128, 8, 8]             256\n            ReLU-21            [-1, 128, 8, 8]               0\n          Conv2d-22            [-1, 128, 8, 8]         147,456\n      BatchNorm2d-23            [-1, 128, 8, 8]             256\n          Conv2d-24            [-1, 128, 8, 8]           8,192\n      BatchNorm2d-25            [-1, 128, 8, 8]             256\n            ReLU-26            [-1, 128, 8, 8]               0\n      BasicBlock-27            [-1, 128, 8, 8]               0\n          Conv2d-28            [-1, 128, 8, 8]         147,456\n      BatchNorm2d-29            [-1, 128, 8, 8]             256\n            ReLU-30            [-1, 128, 8, 8]               0\n          Conv2d-31            [-1, 128, 8, 8]         147,456\n      BatchNorm2d-32            [-1, 128, 8, 8]             256\n            ReLU-33            [-1, 128, 8, 8]               0\n      BasicBlock-34            [-1, 128, 8, 8]               0\n          Conv2d-35            [-1, 256, 4, 4]         294,912\n      BatchNorm2d-36            [-1, 256, 4, 4]             512\n            ReLU-37            [-1, 256, 4, 4]               0\n          Conv2d-38            [-1, 256, 4, 4]         589,824\n      BatchNorm2d-39            [-1, 256, 4, 4]             512\n          Conv2d-40            [-1, 256, 4, 4]          32,768\n      BatchNorm2d-41            [-1, 256, 4, 4]             512\n            ReLU-42            [-1, 256, 4, 4]               0\n      BasicBlock-43            [-1, 256, 4, 4]               0\n          Conv2d-44            [-1, 256, 4, 4]         589,824\n      BatchNorm2d-45            [-1, 256, 4, 4]             512\n            ReLU-46            [-1, 256, 4, 4]               0\n          Conv2d-47            [-1, 256, 4, 4]         589,824\n      BatchNorm2d-48            [-1, 256, 4, 4]             512\n            ReLU-49            [-1, 256, 4, 4]               0\n      BasicBlock-50            [-1, 256, 4, 4]               0\n          Conv2d-51            [-1, 512, 2, 2]       1,179,648\n      BatchNorm2d-52            [-1, 512, 2, 2]           1,024\n            ReLU-53            [-1, 512, 2, 2]               0\n          Conv2d-54            [-1, 512, 2, 2]       2,359,296\n      BatchNorm2d-55            [-1, 512, 2, 2]           1,024\n          Conv2d-56            [-1, 512, 2, 2]         131,072\n      BatchNorm2d-57            [-1, 512, 2, 2]           1,024\n            ReLU-58            [-1, 512, 2, 2]               0\n      BasicBlock-59            [-1, 512, 2, 2]               0\n          Conv2d-60            [-1, 512, 2, 2]       2,359,296\n      BatchNorm2d-61            [-1, 512, 2, 2]           1,024\n            ReLU-62            [-1, 512, 2, 2]               0\n          Conv2d-63            [-1, 512, 2, 2]       2,359,296\n      BatchNorm2d-64            [-1, 512, 2, 2]           1,024\n            ReLU-65            [-1, 512, 2, 2]               0\n      BasicBlock-66            [-1, 512, 2, 2]               0\n        MaxPool2d-67            [-1, 512, 1, 1]               0\n          Conv2d-68           [-1, 1024, 1, 1]       4,719,616\n      BatchNorm2d-69           [-1, 1024, 1, 1]           2,048\n            ReLU-70           [-1, 1024, 1, 1]               0\n_ActivatedBatchNorm-71           [-1, 1024, 1, 1]               0\nAdaptiveAvgPool2d-72           [-1, 1024, 1, 1]               0\n          Linear-73                   [-1, 64]          65,600\n            ReLU-74                   [-1, 64]               0\n          Linear-75                 [-1, 1024]          66,560\n          Conv2d-76              [-1, 1, 1, 1]           1,024\n        SCSEBlock-77           [-1, 1024, 1, 1]               0\n  ConvTranspose2d-78            [-1, 512, 2, 2]       8,389,120\n  DecoderUnetSCSE-79            [-1, 512, 2, 2]               0\n          Conv2d-80           [-1, 1024, 2, 2]       9,438,208\n      BatchNorm2d-81           [-1, 1024, 2, 2]           2,048\n            ReLU-82           [-1, 1024, 2, 2]               0\n_ActivatedBatchNorm-83           [-1, 1024, 2, 2]               0\nAdaptiveAvgPool2d-84           [-1, 1024, 1, 1]               0\n          Linear-85                   [-1, 64]          65,600\n            ReLU-86                   [-1, 64]               0\n          Linear-87                 [-1, 1024]          66,560\n          Conv2d-88              [-1, 1, 2, 2]           1,024\n        SCSEBlock-89           [-1, 1024, 2, 2]               0\n  ConvTranspose2d-90            [-1, 256, 4, 4]       4,194,560\n  DecoderUnetSCSE-91            [-1, 256, 4, 4]               0\n          Conv2d-92            [-1, 512, 4, 4]       2,359,808\n      BatchNorm2d-93            [-1, 512, 4, 4]           1,024\n            ReLU-94            [-1, 512, 4, 4]               0\n_ActivatedBatchNorm-95            [-1, 512, 4, 4]               0\nAdaptiveAvgPool2d-96            [-1, 512, 1, 1]               0\n          Linear-97                   [-1, 32]          16,416\n            ReLU-98                   [-1, 32]               0\n          Linear-99                  [-1, 512]          16,896\n          Conv2d-100              [-1, 1, 4, 4]             512\n      SCSEBlock-101            [-1, 512, 4, 4]               0\nConvTranspose2d-102            [-1, 128, 8, 8]       1,048,704\nDecoderUnetSCSE-103            [-1, 128, 8, 8]               0\n          Conv2d-104            [-1, 256, 8, 8]         590,080\n    BatchNorm2d-105            [-1, 256, 8, 8]             512\n            ReLU-106            [-1, 256, 8, 8]               0\n_ActivatedBatchNorm-107            [-1, 256, 8, 8]               0\nAdaptiveAvgPool2d-108            [-1, 256, 1, 1]               0\n          Linear-109                   [-1, 16]           4,112\n            ReLU-110                   [-1, 16]               0\n          Linear-111                  [-1, 256]           4,352\n          Conv2d-112              [-1, 1, 8, 8]             256\n      SCSEBlock-113            [-1, 256, 8, 8]               0\nConvTranspose2d-114           [-1, 64, 16, 16]         262,208\nDecoderUnetSCSE-115           [-1, 64, 16, 16]               0\n          Conv2d-116          [-1, 128, 16, 16]         147,584\n    BatchNorm2d-117          [-1, 128, 16, 16]             256\n            ReLU-118          [-1, 128, 16, 16]               0\n_ActivatedBatchNorm-119          [-1, 128, 16, 16]               0\nAdaptiveAvgPool2d-120            [-1, 128, 1, 1]               0\n          Linear-121                    [-1, 8]           1,032\n            ReLU-122                    [-1, 8]               0\n          Linear-123                  [-1, 128]           1,152\n          Conv2d-124            [-1, 1, 16, 16]             128\n      SCSEBlock-125          [-1, 128, 16, 16]               0\nConvTranspose2d-126           [-1, 32, 32, 32]          65,568\nDecoderUnetSCSE-127           [-1, 32, 32, 32]               0\n          Conv2d-128           [-1, 64, 32, 32]          55,360\n    BatchNorm2d-129           [-1, 64, 32, 32]             128\n            ReLU-130           [-1, 64, 32, 32]               0\n_ActivatedBatchNorm-131           [-1, 64, 32, 32]               0\nAdaptiveAvgPool2d-132             [-1, 64, 1, 1]               0\n          Linear-133                    [-1, 4]             260\n            ReLU-134                    [-1, 4]               0\n          Linear-135                   [-1, 64]             320\n          Conv2d-136            [-1, 1, 32, 32]              64\n      SCSEBlock-137           [-1, 64, 32, 32]               0\nConvTranspose2d-138           [-1, 16, 64, 64]          16,400\nDecoderUnetSCSE-139           [-1, 16, 64, 64]               0\n          Conv2d-140           [-1, 64, 64, 64]          31,808\n    BatchNorm2d-141           [-1, 64, 64, 64]             128\n            ReLU-142           [-1, 64, 64, 64]               0\n_ActivatedBatchNorm-143           [-1, 64, 64, 64]               0\n          Conv2d-144            [-1, 5, 64, 64]             325\nEncoderDecoderNet-145            [-1, 5, 64, 64]               0\n================================================================\nTotal params= 42,813,873\nTrainable params= 42,813,873\nNon-trainable params= 0\n----------------------------------------------------------------\nInput size (MB)= 0.05\nForward/backward pass size (MB)= 20.35\nParams size (MB)= 163.32\nEstimated Total Size (MB)= 183.72\n----------------------------------------------------------------\n"
…
